lib/statedictmodelWith10EpochOperaAppliedOnEachDigitBatchSize320.pth (torch, 668111 bytes, 8 tensors)

conv1.weight f4 [64, 1, 3, 3]
0	0x3e11ce0e	0.1423876
1	0x3e1dc653	0.15407686
2	0xbed9c81d	-0.42535487
3	0xbc93bf23	-0.018035477
4	0x3d76c30f	0.060244616
5	0xbe9e05ce	-0.30863804
6	0x3e2bdaa9	0.16782631
7	0x3e9690c1	0.29407313
8	0xbdc122b3	-0.094304465
9	0x3d5f3fa9	0.05450407
10	0xbcac6a86	-0.021046888
11	0xbec2f29c	-0.3807572
12	0xbde50ba8	-0.11183864
13	0xbe0aa625	-0.13539942
14	0x3e395127	0.18097363
15	0x3e813eb5	0.25243154
16	0xbe0b5895	-0.1360801
17	0xbed2266a	-0.41044933
18	0xbe881ee9	-0.26586083
19	0xbec9937b	-0.3937033
20	0x3e15ff3f	0.1464815
21	0x3c2f2063	0.010688874
22	0x3e6bdd9b	0.23033755
23	0x3e84d844	0.25946248
24	0xbd9e6f0b	-0.077360235
25	0xbe1f1617	-0.1553577
26	0x3dd41e01	0.10357285
27	0x3e2b595c	0.16733307
28	0x3eb65676	0.3561284
29	0xbe8dea03	-0.277176
30	0x3e747270	0.2387178
31	0x3e1c25a7	0.15248738
32	0xbe8c201e	-0.27368253
33	0x3baeb97c	0.00533217
34	0xbeddb21d	-0.43299952
35	0xbeae7c4c	-0.34079206
36	0xbd13bdbd	-0.03606962
37	0xbea8895e	-0.32917303
38	0xbe32038a	-0.17384163
39	0x3e2cb1fc	0.1686477
40	0xbe1fd6c7	-0.15609275
41	0xbeaaed54	-0.33384192
42	0x3ed62b91	0.41830114
43	0xbe7b3f1d	-0.24535795
44	0x3e0843e7	0.13307153
45	0x3e2bb0bf	0.16766642
46	0xbe772113	-0.2413371
47	0xbe2ffc7d	-0.1718616
48	0xbe8706c2	-0.26372343
49	0xbe7da48f	-0.24769805
50	0xbe3033f0	-0.17207313
51	0xbd221aae	-0.039576225
52	0x3e80b09a	0.25134736
53	0xbe1d7005	-0.15374763
54	0xbe788cdb	-0.24272482
55	0xbec31240	-0.3809986
56	0xbd5e8643	-0.05432726
57	0xbe388aa3	-0.18021636
58	0xbdf0fad7	-0.11766594
59	0x3e01f74c	0.12691993
60	0x3e2aeb10	0.16691232
61	0x3ddbc427	0.107307725
62	0xbc9d5572	-0.019205783
63	0x3e9d9f56	0.30785626
64	0x3eb0e03e	0.34546083
65	0xbe942a30	-0.28938437
66	0xbe21edd8	-0.15813386
67	0x3e94fe58	0.291003
68	0xbdb4217a	-0.08795448
69	0xbc1cd3e3	-0.009572002
70	0xbd804f74	-0.062651545
71	0xbeed88e0	-0.4639349
72	0xbd0eda34	-0.034876063
73	0xbe358347	-0.1772586
74	0xbd7fb60d	-0.062429477
75	0x3ebd8c63	0.3702117
76	0x3e95f56c	0.29288805
77	0xbeb51640	-0.35368538
78	0x3da0219d	0.07818911
79	0xbe7aa57c	-0.2447719
80	0xbebcb6de	-0.36858267
81	0x3de94ea8	0.113919556
82	0x3d9c6d10	0.076379895
83	0x3e47557e	0.19466206
84	0xbe9cd293	-0.30629405
85	0x3ea2c13e	0.31788057
86	0x3e24e589	0.16103186
87	0xbbe4beaa	-0.0069807367
88	0xbed2a71e	-0.41143125
89	0xbe9cd319	-0.30629805
90	0xbe34e8ff	-0.17667006
91	0xbd8fca35	-0.0702099
92	0xbe5ec860	-0.21756124
93	0xbd8e7499	-0.06955833
94	0xbe517f4a	-0.20458713
95	0xbedc9c78	-0.43088126
96	0x3dbd4700	0.09242058
97	0x3e8f35d8	0.27970767
98	0xbe8235b5	-0.254316
99	0xbe649776	-0.22323403
100	0x3e63551d	0.22200437
101	0xbd2cbec6	-0.042174123
102	0xbec643dd	-0.3872365
103	0xbe0e8ca5	-0.13920839
104	0x3e4d3861	0.20041038
105	0x3e9a89b8	0.30183196
106	0x3d88b9e0	0.06676078
107	0xbed1a43b	-0.4094561
108	0x3e989cfc	0.2980727
109	0xbe4ec08d	-0.2019064
110	0x3dc7eab3	0.09761562
111	0x3ea24077	0.31689808
112	0xbd3f9eb5	-0.046782214
113	0xbea4cf43	-0.32189378
114	0xbe5f8729	-0.21828903
115	0xbe6551e0	-0.22394514
116	0xbf054e33	-0.5207245
117	0xbe68ffcb	-0.22753827
118	0xbe70e19d	-0.23523565
119	0xbe758ca4	-0.23979431
120	0xbe40a4e9	-0.18812908
121	0x3d94bc05	0.072624244
122	0xbdeedf83	-0.11663725
123	0xbe8e4dc6	-0.2779371
124	0x3eb14003	0.3461915
125	0x3e1bbd0b	0.15208833
126	0xbe456c87	-0.19279681
127	0xbe4b90e5	-0.19879492
128	0x3e140cce	0.1445801
129	0xbeb720b7	-0.35767147
130	0x3e11c9ca	0.14237133
131	0x3e8c4746	0.27398127
132	0xbd98bd82	-0.07458021
133	0x3e2def4f	0.1698582
134	0x3d8c5a16	0.0685312
135	0xbdaffada	-0.08592768
136	0x3dd1d053	0.10244813
137	0x3e80fd12	0.25193077
138	0xbe912cf9	-0.28354624
139	0xbe4f1c6b	-0.20225684
140	0xbd5c0cf3	-0.053723287
141	0x3c0f22a8	0.00873629
142	0x3e6ea770	0.2330606
143	0xbed4ade3	-0.41538915
144	0xbe2c4fe9	-0.16827358
145	0xbe574202	-0.21021274
146	0x3c8d9062	0.017280761
147	0xbe29acf2	-0.1656988
148	0x3d9fc902	0.07802011
149	0xbecf0356	-0.40432233
150	0x3e3cc561	0.18434669
151	0x3dcd9ccb	0.100396715
152	0x3e0a05fe	0.13478848
153	0xbe4c10c9	-0.19928278
154	0xbd7a8df1	-0.061170522
155	0x3e449ef2	0.19201258
156	0x3e71ee2e	0.23626015
157	0x3e3d31a6	0.1847597
158	0xbec0399c	-0.37543952
159	0xbdfe4aa4	-0.1241658
160	0x3dd8124b	0.10550364
161	0xbd914e2e	-0.0709499
162	0xbdd25deb	-0.1027182
163	0x3dc4e707	0.096143775
164	0xbeddec03	-0.43344125
165	0x3dcaf030	0.099090934
166	0x3e38776e	0.18014309
167	0xbeb7cf76	-0.35900468
168	0xbccdd07f	-0.025123833
169	0x3e71ff87	0.23632632
170	0x3ea6066a	0.3242677
171	0xbd70ff96	-0.058837496
172	0xbe8697f1	-0.26287797
173	0x3eae4135	0.34034124
174	0xbe39be47	-0.18138991
175	0xbe8ef4b6	-0.27921075
176	0x3d392592	0.045201845
177	0xbe33df85	-0.17565735
178	0xbc886366	-0.01664896
179	0x3ed348bd	0.41266432
180	0xbe324476	-0.17408928
181	0xbe504600	-0.20339203
182	0xbe8303a4	-0.25588715
183	0xbdf9483a	-0.12171979
184	0x3c6985d7	0.014253101
185	0xbbd76b34	-0.006574059
186	0x3e8cfad2	0.2753511
187	0x3cfd499a	0.030918885
188	0xbe956c0c	-0.29183996
189	0xbde668d0	-0.1125046
190	0xbd831c81	-0.06401921
191	0x3ece81e7	0.40333483
192	0xbe728ed8	-0.23687303
193	0xbe83c788	-0.25738168
194	0xbe268177	-0.16260324
195	0x3e9bfecb	0.3046783
196	0xbdbc6901	-0.091997154
197	0xbe438f2f	-0.19097589
198	0x3e7adf14	0.2449916
199	0xbcf1e0c6	-0.029526126
200	0xbe8edd17	-0.27903053
201	0x3c689983	0.014196756
202	0x3ccfe7f0	0.025379151
203	0xbe1a5834	-0.1507271
204	0xbeedbd56	-0.46433514
205	0x3c9bdf96	0.019027513
206	0x3e4d07ad	0.2002246
207	0xbc8d14f8	-0.017221913
208	0x3ebc06c5	0.36723915
209	0x3d07514c	0.033036515
210	0x3ec27e79	0.37987116
211	0xbd6a63bb	-0.057224017
212	0xbe4c66cc	-0.19961089
213	0xbe0cefd7	-0.13763367
214	0xbe12f757	-0.14352165
215	0xbe953dc5	-0.2914869
216	0xbcb042b8	-0.021516189
217	0x3de8542b	0.11344179
218	0xbe18e1b6	-0.14929852
219	0xbe8fd453	-0.28091678
220	0xbd34132c	-0.043963596
221	0x3e656e6d	0.22405405
222	0xbea9c5b2	-0.33158642
223	0x3e0080c8	0.12549126
224	0x3c13be5d	0.009017554
225	0xbcccec38	-0.025014982
226	0x3e44aada	0.192058
227	0xbe2874c8	-0.16450799
228	0xbec2b6dd	-0.3803014
229	0x3e1ba529	0.15199722
230	0x3d355d4d	0.04427843
231	0x3d5d6600	0.054052353
232	0xbece186e	-0.40253013
233	0x3cd8ad83	0.026449924
234	0x3ea731a3	0.32655057
235	0xbd2a421d	-0.041566957
236	0xbe3b5e30	-0.18297648
237	0xbe094138	-0.13403785
238	0xbde6b359	-0.112646766
239	0xbe156822	-0.14590505
240	0xbe32a1f2	-0.1744459
241	0xbe7b55a7	-0.24544393
242	0x3ea36d7a	0.3191946
243	0x3ec54168	0.38526464
244	0xbdda24a0	-0.10651517
245	0xbe7c7ae0	-0.24656248
246	0x3e919181	0.28431323
247	0xbe0d1793	-0.13778524
248	0xbe907fb8	-0.28222442
249	0xbdc79945	-0.09746031
250	0x3deafc0c	0.114738554
251	0xbe97a881	-0.29620746
252	0xbd992e7c	-0.07479569
253	0x3e1a5e71	0.15075089
254	0x3d2edd83	0.04269172
255	0xbe1d3ce4	-0.15355259

conv1.bias f4 [64]
0	0xbe910269	-0.2832215
1	0xbd4079af	-0.046991047
2	0xbc075e4e	-0.00826223
3	0x3e8a71e6	0.27040023
4	0xbd73f2b3	-0.059557628
5	0xbeac88f3	-0.33698234
6	0xbe458fe4	-0.19293171
7	0x3eba3a81	0.3637276
8	0x3e8dd836	0.27704018
9	0xbe0b0dfd	-0.13579555
10	0xbdaa8395	-0.083258785
11	0x3df0ddd0	0.117610574
12	0x3f32557f	0.69661707
13	0x3e0d3782	0.13790706
14	0xbc96e5b3	-0.018420076
15	0x3e7f69a3	0.24942641
16	0xbddc8f0c	-0.107694715
17	0xbe8c7e2a	-0.27440006
18	0xbecbcfd1	-0.3980699
19	0xbc7878e7	-0.015165544
20	0x3ed9ef6c	0.42565477
21	0x3e926fbe	0.28600878
22	0x3df6cd4f	0.12050878
23	0x3e1c9ff4	0.15295392
24	0xbe8c8e7f	-0.27452466
25	0xbee6a99d	-0.4505128
26	0x3e1fc72f	0.15603326
27	0x3e4b8cdc	0.19877952
28	0xbea271fd	-0.3172759
29	0xbdb426ff	-0.087965004
30	0x3d5eb62c	0.05437295
31	0xbe1857ab	-0.14877193
32	0xbb9e8a0d	-0.0048382343
33	0xbe8e6350	-0.27810144
34	0x3d88a365	0.0667179
35	0xbd64f90d	-0.055901576
36	0xbcf21070	-0.029548854
37	0x3ce4fc9f	0.02795249
38	0xbe002ec0	-0.12517834
39	0x3d368f50	0.044570267
40	0xbe0cf3f5	-0.13764937
41	0xbe82a05f	-0.25512978
42	0xbda2dc01	-0.07952119
43	0xbe5dcca8	-0.21660101
44	0xbe2ca690	-0.16860414
45	0x3e43e4f7	0.19130312
46	0xbe11cff6	-0.14239487
47	0xbc09ddbf	-0.008414685
48	0xbd9c585e	-0.07634042
49	0xbcef1e4a	-0.029189248
50	0xbec3d8f3	-0.38251457
51	0x3e713549	0.23555483
52	0xbe86553c	-0.26236904
53	0x3dcf6842	0.101273075
54	0xbeb7dcdf	-0.359107
55	0xbc262578	-0.010140769
56	0xbdede619	-0.11616153
57	0xbe1c6cb3	-0.1527584
58	0xbe20b476	-0.1569384
59	0xbcb39de5	-0.021925876
60	0xbf1124c5	-0.5669673
61	0x3e96ee27	0.2947857
62	0xbbccd44f	-0.006250895
63	0x3e880500	0.26566315

conv2.weight f4 [64, 64, 3, 3]
0	0xbdfa8842	-0.1223302
1	0xbd04408f	-0.03228813
2	0xbd71b966	-0.0590147
3	0xbdcac309	-0.09900481
4	0xbddc5f45	-0.10760359
5	0xbc2d8a74	-0.010592092
6	0xbde851c1	-0.11343718
7	0xbe0aaebe	-0.13543221
8	0xbdc23a42	-0.09483768
9	0x3b66123a	0.0035106079
10	0xbd806787	-0.06269746
11	0x3d8ce196	0.068789646
12	0xbd6a5f20	-0.057219625
13	0xbe14ef2b	-0.1454436
14	0xbbfde83a	-0.007748631
15	0xbd8cc738	-0.068739355
16	0xbc3eb2ac	-0.011639278
17	0x3d09eebb	0.033674937
18	0x3db1105f	0.08645701
19	0x3df66de2	0.12032677
20	0x3d44c2ea	0.048037447
21	0xbdb2390c	-0.08702287
22	0xbd515ec5	-0.05111577
23	0xbda18bec	-0.07888016
24	0xbe0a3aa5	-0.13498934
25	0xbdecdb7f	-0.11565303
26	0xbda95346	-0.08267836
27	0xbc6f36cd	-0.014600468
28	0x3d53bfe5	0.051696677
29	0x3df6285b	0.12019416
30	0xbe0942aa	-0.13404337
31	0xbd63f918	-0.055657476
32	0x3dac77b0	0.08421266
33	0xbdf8eb03	-0.121542
34	0xbe698de9	-0.2280804
35	0x3d6cde1f	0.05782902
36	0x3b6d0a0c	0.0036169318
37	0xbdce625f	-0.100773565
38	0x3d235fb0	0.039886177
39	0xbd23bfc8	-0.03997782
40	0xbe19d71d	-0.15023465
41	0xbcbca867	-0.02302952
42	0x3d3cd287	0.046099212
43	0xbca1250c	-0.019670986
44	0xbc72b265	-0.01481304
45	0xbdcb55bf	-0.09928464
46	0x3c2f53da	0.010701144
47	0xbd5c7f18	-0.053832144
48	0xbdcfff1c	-0.1015608
49	0xbd1cdc14	-0.03829582
50	0x3d440464	0.04785575
51	0xbdc6a789	-0.096999235
52	0xbd8d783c	-0.069076985
53	0x3cfe9a38	0.031079397
54	0xbd6437d4	-0.055717304
55	0x3c1157a0	0.008870989
56	0xbd99524b	-0.07486399
57	0x3ce8edde	0.028433736
58	0xbe77be87	-0.24193774
59	0xbc1a2160	-0.009407371
60	0x3c597552	0.0132726
61	0xbd303944	-0.043023363
62	0xbd600271	-0.05468983
63	0xbcc8900b	-0.024482748
64	0x3b410085	0.0029449773
65	0x3da55117	0.08072107
66	0xbd9d861e	-0.076915964
67	0xbc9aa054	-0.018875279
68	0x3d9ed9ea	0.077564076
69	0xbe43a06e	-0.19104168
70	0xbe69be18	-0.22826421
71	0x3d48dea9	0.04904047
72	0xbe14be06	-0.14525613
73	0xbdc1fa10	-0.09471524
74	0x3de57ed3	0.112058304
75	0xbd8ef667	-0.06980591
76	0xbe76e6c3	-0.24111466
77	0xbe2a0ada	-0.16605702
78	0xbdde19a3	-0.108447336
79	0xbe3e2b0b	-0.18571107
80	0xbe3fa925	-0.18716867
81	0x3da9a9a8	0.082843125
82	0x3cbc3edd	0.022979194
83	0x3cd73609	0.026270883
84	0x3d249422	0.040180333
85	0xbbb5eafe	-0.005551695
86	0xbd393d7a	-0.045224644
87	0xbe1c5296	-0.15265879
88	0xbdb336a4	-0.08750656
89	0xbd9b38a8	-0.07579166
90	0x3d81c402	0.06336214
91	0xbd33e373	-0.043918084
92	0x3c17e9fb	0.009272094
93	0xbcca0702	-0.024661545
94	0xbdeccdc9	-0.11562688
95	0x3d212782	0.03934432
96	0x3d552708	0.052039176
97	0x3dad5bc4	0.084647685
98	0x3daf5af1	0.085622676
99	0xbda96c61	-0.08272625
100	0xbae92eec	-0.0017790473
101	0x3d00a90b	0.031411212
102	0xbc091346	-0.008366412
103	0xbc54f293	-0.012997287
104	0xbd8b8c80	-0.068139076
105	0x3d550519	0.052006815
106	0x3d259b15	0.0404311
107	0x3d13c048	0.036072046
108	0xbda4e4b2	-0.08051433
109	0xbd96c050	-0.073608994
110	0x3e1626e9	0.1466328
111	0xbd31d9d7	-0.04342064
112	0xbcbc6ceb	-0.023001155
113	0x3de429dd	0.11140797
114	0xbdf2cecf	-0.11855852
115	0xbe513ba5	-0.20432909
116	0xbd2717d1	-0.040794197
117	0xbe27d36c	-0.16389245
118	0x3de968d7	0.1139695
119	0x3d2952b8	0.041338652
120	0xbe1a9f75	-0.1509989
121	0x3d848fe7	0.0647276
122	0x3c0bbd1c	0.008528974
123	0xbde9e41b	-0.11420461
124	0x3d42bd08	0.047543555
125	0x3d42bb48	0.047541887
126	0xbcb430e2	-0.021995965
127	0x3dd96797	0.10615461
128	0x3d0ab09f	0.033859845
129	0xbdbc5c59	-0.091973014
130	0xbd7c2152	-0.061555214
131	0xbdc78fda	-0.097442344
132	0xbe0a1833	-0.13485794
133	0xbdee376b	-0.11631664
134	0xbe127269	-0.14301457
135	0x3d60a57f	0.05484533
136	0x3d52372a	0.05132214
137	0x3e193e49	0.14965166
138	0x3c83ab01	0.016072752
139	0xbd5bf4c3	-0.05370022
140	0xbd8ad227	-0.06778365
141	0x3d837b22	0.0641997
142	0x3daaa347	0.08331924
143	0x3bc57c15	0.0060267546
144	0xbdbe9267	-0.09305268
145	0xbd15bab4	-0.036555007
146	0xbd4ae700	-0.049536705
147	0xbd52a152	-0.05142338
148	0xbe1d9e62	-0.1539245
149	0xbd9aba3a	-0.07555051
150	0xbc1d54a4	-0.009602699
151	0xbc0e2087	-0.008674747
152	0xbc38ec4d	-0.011286807
153	0xbd4e359c	-0.050344095
154	0x3d5f7bad	0.054561306
155	0x3def0b67	0.11672097
156	0xbdc2f5a6	-0.0951951
157	0xbd56e0d9	-0.052460525
158	0xbd87d272	-0.06631936
159	0xbdd27248	-0.10275704
160	0xbd87e208	-0.06634909
161	0xbd637528	-0.05553165
162	0x3b986f25	0.0046519213
163	0x3d26efe0	0.040756106
164	0xbc0a83f8	-0.008454315
165	0xbe033e27	-0.12816678
166	0xbdb71080	-0.08938694
167	0xbd9d79dd	-0.07689259
168	0xbd283679	-0.041067574
169	0xbcc3cec6	-0.023902308
170	0xbc471dc2	-0.012153091
171	0x3d8a9b72	0.0676793
172	0x3d242287	0.04007199
173	0xbd838f15	-0.06423775
174	0xbcbbf3d9	-0.022943424
175	0xbd4a9b76	-0.049464665
176	0xbe75e860	-0.24014425
177	0xbd1461d2	-0.0362261
178	0xbc631299	-0.0138594145
179	0xbe1da5a3	-0.15395217
180	0xbc8d60c3	-0.017258054
181	0xbd8df718	-0.06931895
182	0x3ccd691b	0.025074532
183	0xbd6d66a3	-0.05795921
184	0xbdb1d947	-0.086840205
185	0xbc4da6fb	-0.012552018
186	0x3db5832d	0.088629104
187	0x3db6ce6d	0.08926091
188	0x3dc6b041	0.097015865
189	0x3d667cbf	0.05627131
190	0x3d868a78	0.065693796
191	0x3e058b95	0.13041528
192	0xbbabc021	-0.0052414094
193	0xbcb39817	-0.021923108
194	0xbe013155	-0.12616475
195	0x3d919e9d	0.07110331
196	0x3d354efa	0.04426477
197	0x3d9ba38d	0.07599554
198	0xbdd7e632	-0.10541953
199	0xbe32ad8b	-0.17449014
200	0x3da071d3	0.0783421
201	0xbe03197a	-0.12802687
202	0x3d94cbe2	0.0726545
203	0x3e089027	0.1333624
204	0xbe48e46b	-0.19618385
205	0xbd2f880e	-0.04285436
206	0x3d3d4da8	0.046216637
207	0xbc572619	-0.013131642
208	0x3d58e84d	0.052955914
209	0x3dae539c	0.08512041
210	0xbdb9a67f	-0.0906496
211	0xb9e7d2b2	-0.00044216734
212	0x3c329ed4	0.010902125
213	0xbe204747	-0.1565219
214	0xbdc79413	-0.0974504
215	0x3d9936c5	0.074811496
216	0xba125c22	-0.0005583187
217	0x3d223a0a	0.03960613
218	0xbd20c696	-0.039251886
219	0xbda797c0	-0.08183241
220	0x3ce9098b	0.028446933
221	0xbd21e79e	-0.039527528
222	0xbe07a686	-0.13247117
223	0xbdee319f	-0.11630558
224	0xbd75ddb5	-0.06002589
225	0xbbba41b0	-0.0056841
226	0xbd2c415c	-0.04205452
227	0x3d567ff8	0.052368134
228	0xbd97a7b4	-0.07405034
229	0xbd836219	-0.06415195
230	0xbd208f26	-0.039199017
231	0xbdf4ff64	-0.119627744
232	0xbd2ca5de	-0.04215037
233	0xbca57704	-0.020198353
234	0xbde816b5	-0.11332456
235	0xbd542f8b	-0.051803153
236	0x3df7acea	0.120935276
237	0xbd7bf87b	-0.061516266
238	0x3cac63fd	0.021043772
239	0x3e1e6761	0.15469123
240	0xbe06a6b5	-0.13149531
241	0xbd0cc878	-0.03437087
242	0xbb51fac7	-0.0032040344
243	0xbe763b83	-0.2404614
244	0xbd75e965	-0.060037035
245	0x3c73b657	0.014875016
246	0xbe192cc8	-0.14958489
247	0xbd91e465	-0.07123641
248	0x3d90a091	0.070618756
249	0xbe392711	-0.18081309
250	0xbe96158f	-0.29313323
251	0xbe2ff4b9	-0.17183198
252	0xbd1fa720	-0.038977742
253	0xbc96e697	-0.0184205
254	0x3dba0151	0.09082282
255	0xbd9adcb4	-0.07561627

conv2.bias f4 [64]
0	0xbdbd985a	-0.092575744
1	0xbd8460e3	-0.06463792
2	0x3ca17b9a	0.019712258
3	0xbd05a7f9	-0.032630894
4	0xbe7b5ebf	-0.24547862
5	0x3c410e6f	0.011783226
6	0xbc4b9ff2	-0.012428271
7	0x398907ba	0.00026136433
8	0xbe164f9e	-0.14678809
9	0xbd9effc2	-0.07763626
10	0x3bca9b0c	0.006183034
11	0xbb30ac74	-0.0026958259
12	0xbba32e88	-0.004979912
13	0xbd5dcfc7	-0.05415323
14	0x3e65801a	0.22412148
15	0xbe323f9a	-0.17407075
16	0x3d2b9614	0.041891173
17	0xbd4def6a	-0.05027715
18	0x3caefe53	0.021361506
19	0x3e1baeda	0.1520342
20	0xbcae0330	-0.021241754
21	0xbd840713	-0.06446662
22	0x3c86b227	0.016442372
23	0xbc97b7f7	-0.018520338
24	0xbe0b991e	-0.13632628
25	0x3ddb9eaa	0.10723622
26	0x3e26e1ec	0.1629712
27	0x3a437360	0.0007455852
28	0xbd527aea	-0.05138675
29	0xbe119fa3	-0.14221053
30	0xbcea354b	-0.028589865
31	0x3db7e7ee	0.08979784
32	0xbd91d1d0	-0.07120097
33	0x3de3493e	0.11097954
34	0xbd7d2505	-0.061802883
35	0xbd25c16d	-0.04046767
36	0xbdb52812	-0.088455334
37	0x3e2be942	0.167882
38	0xbc8f0059	-0.01745622
39	0xbd92ad8a	-0.07162006
40	0xbd92478d	-0.071425535
41	0xbd348d4a	-0.044080056
42	0xbd8571ef	-0.06515872
43	0xbd70bcb2	-0.058773704
44	0x3e023a64	0.12717587
45	0x3d8b4ecc	0.06802139
46	0xbd7787b8	-0.060432166
47	0xbd0bf89e	-0.034172647
48	0xbddbb991	-0.10728753
49	0xbc586cbd	-0.013209519
50	0xbcb7c3d9	-0.022432255
51	0x3df8bec7	0.12145763
52	0xbd1317ad	-0.03591125
53	0xbcc8ba95	-0.024503032
54	0xbd161721	-0.03664315
55	0xbd643e13	-0.05572326
56	0xbe5d1a34	-0.21592027
57	0xbd699633	-0.057028007
58	0xbcf0a461	-0.029375257
59	0x3d8d74bc	0.06907031
60	0x3b1cc72c	0.0023922427
61	0xbd523e87	-0.051329162
62	0xbd72e3f1	-0.059299413
63	0xbd56e67b	-0.052465897

fc1.weight f4 [80, 1600]
0	0xbc7c1a89	-0.015387186
1	0x3d1a890e	0.03772836
2	0xbc2f0798	-0.010682963
3	0x3b9863a6	0.004650551
4	0xbd20f35e	-0.039294593
5	0xbd185e19	-0.037199114
6	0xbdb6902d	-0.08914218
7	0xbe08276b	-0.13296287
8	0xbdbdad8e	-0.092616186
9	0xbdf0fbdc	-0.11766788
10	0xbc56e419	-0.013115906
11	0x3df3c724	0.119032174
12	0x3c3d1b98	0.011542223
13	0xbe083c50	-0.13304257
14	0xbdde09a8	-0.108416855
15	0x3ded048b	0.11573132
16	0x3e26b0e6	0.16278419
17	0x3e295846	0.1653758
18	0xbcf2f7ff	-0.02965927
19	0x3cc4981d	0.023998315
20	0x3dd04ca2	0.101708665
21	0x3d6545b6	0.055974685
22	0xbd6bdbb1	-0.05758256
23	0x3da6582b	0.081222855
24	0x3aba5bd2	0.0014218038
25	0x3bffc2ea	0.007805218
26	0xbbf69e12	-0.0075261677
27	0xbbe6f35d	-0.007048054
28	0xbbdcbe3f	-0.0067365463
29	0xbd13b05e	-0.03605687
30	0xbc4e5bfc	-0.012595173
31	0xbb9b521c	-0.004740013
32	0x3c72f0dd	0.014827934
33	0x3b6cf079	0.0036154075
34	0x3c87ec4c	0.016592167
35	0x3c557e57	0.01303061
36	0xbc906578	-0.01762651
37	0x3c8c7daa	0.017149765
38	0x3c358652	0.011079388
39	0x3c41de0e	0.011832727
40	0xbc709a05	-0.014685159
41	0xbc88f49b	-0.0167182
42	0xbc7cae7e	-0.015422462
43	0x3c58f05c	0.0132409
44	0xbc84bc8c	-0.016203187
45	0x3bebb850	0.0071936026
46	0xbcea071d	-0.028567845
47	0xbc32d05e	-0.010913936
48	0xbbbdb765	-0.0057896846
49	0xbcbcb02f	-0.02303323
50	0xbbd0b795	-0.006369541
51	0xbd136c99	-0.03599224
52	0xbd7c1a83	-0.06154872
53	0xbd92b04b	-0.071625315
54	0x3cebc5bf	0.028780816
55	0xbdf2bd51	-0.118525155
56	0xbdf3e2c9	-0.1190849
57	0xbe1a4759	-0.1506628
58	0x3b05a6fc	0.002039372
59	0xbd871436	-0.06595652
60	0x3c6121ef	0.013741001
61	0xbddc5a90	-0.10759461
62	0xbde3e594	-0.11127773
63	0xb9f97b50	-0.00047584856
64	0xbdc4e45b	-0.09613868
65	0xbca3c62d	-0.019991959
66	0x3d1cde24	0.038297787
67	0xbc0b3477	-0.008496395
68	0xbddf562d	-0.109051086
69	0xbe59ce58	-0.2127012
70	0x3d8edfad	0.069762565
71	0x3cb75ffe	0.02238464
72	0xbd1ab76c	-0.03777258
73	0x3cf9ff6d	0.030517304
74	0xbe373ba9	-0.17893852
75	0xbb1add95	-0.0023630608
76	0x3d04286e	0.03226512
77	0x3caafe1d	0.020873124
78	0x3d0cd74b	0.034385007
79	0xbca2e971	-0.019886704
80	0xbac266a2	-0.0014831612
81	0xbcd50225	-0.026002
82	0x3a4235ba	0.00074085186
83	0xbcc4bbb0	-0.024015278
84	0xbd183f7c	-0.03716992
85	0xbbd2d609	-0.0064342064
86	0xb9a9c8e7	-0.00032383876
87	0xbbfe58bb	-0.0077620423
88	0x3b554a6b	0.0032545577
89	0xbd13ab37	-0.036051955
90	0xbca6d051	-0.020363005
91	0xbb1491c9	-0.0022669903
92	0x3ce94056	0.02847306
93	0x3c81edbe	0.015860435
94	0xbd42bbde	-0.047542445
95	0x3b3f75c2	0.0029214476
96	0xbba5fe47	-0.0050657126
97	0x3b55d2fa	0.0032626973
98	0xbd2854e5	-0.041096587
99	0xbd74b431	-0.059742156
100	0xbdbedd5d	-0.093195654
101	0x3dcdc9db	0.100482665
102	0x3e2140cc	0.15747374
103	0x3e54f312	0.20795849
104	0x3d27bc87	0.040951278
105	0xbdb0036a	-0.08594401
106	0x3e97c9e9	0.29646233
107	0x3da2a73d	0.079420544
108	0x3e331e1f	0.17491959
109	0x3e074790	0.13210893
110	0xbde082b6	-0.10962431
111	0x3d3cb2c6	0.04606893
112	0x3d7293ad	0.059222866
113	0xbccc672e	-0.024951544
114	0x3d8ce1e2	0.06879021
115	0xbd9f36ee	-0.07774149
116	0xbd9e83d3	-0.07739987
117	0xbdd335e4	-0.10313013
118	0xbd65e57f	-0.056127068
119	0xbdd4d229	-0.10391647
120	0xbcdfa3d1	-0.027299793
121	0xbdfd83e6	-0.12378673
122	0xbdcd0bfb	-0.10012051
123	0xbdbaebe5	-0.091270246
124	0x3ce28285	0.027650127
125	0xbb837a60	-0.004012391
126	0x3d1052b6	0.03523513
127	0xbdaa4c7d	-0.0831537
128	0x3b0eeb35	0.0021807675
129	0xbcc37723	-0.02386052
130	0xbd27b086	-0.04093983
131	0xbd3fc872	-0.04682202
132	0xbd47e0ce	-0.048798375
133	0x3c9f5b6d	0.019452775
134	0x3c3c30c5	0.011486237
135	0xbc2f3ff4	-0.0106964
136	0x3d234d7d	0.03986882
137	0xbd6f5f29	-0.05844036
138	0x3d627d1f	0.055295106
139	0xbd05df1f	-0.032683488
140	0xbc960b40	-0.018315911
141	0x3cefe5ba	0.029284347
142	0xbcc52da3	-0.024069613
143	0xbdac6f29	-0.084196396
144	0xbe103999	-0.14084472
145	0x3cc08105	0.023499021
146	0x3be13825	0.006873148
147	0x3b0208ac	0.0019841595
148	0x3c481eb5	0.012214352
149	0xbe12b824	-0.14328057
150	0xbda5a5be	-0.080882534
151	0xbbdebbb8	-0.00679728
152	0xbdcfdd6a	-0.10149653
153	0xbdafda43	-0.08586552
154	0xbdbcda38	-0.092213094
155	0xbd6c0b09	-0.05762771
156	0xbda73a80	-0.08165455
157	0xbe27c216	-0.16382632
158	0xbddb0120	-0.10693574
159	0xbe2337d4	-0.15939265
160	0x3b1a90c9	0.0023584834
161	0x3dccd07e	0.10000704
162	0x3c6e72c2	0.014553728
163	0xbd850938	-0.06495899
164	0xbc2b3f2d	-0.010452074
165	0x3db046bc	0.086072415
166	0x3e0c7677	0.13717066
167	0x3db8a34e	0.09015523
168	0x3c7e3fca	0.015518138
169	0xbcf56234	-0.029954053
170	0x3e206871	0.15664841
171	0x3d8356a4	0.0641301
172	0xbd769e35	-0.06020947
173	0x3d38a066	0.045074843
174	0xbd3c8eca	-0.04603461
175	0x3d1d3004	0.03837587
176	0x3d59f9ae	0.05321663
177	0x3c7fa626	0.015603578
178	0xbce3da56	-0.027814072
179	0x3c2f8254	0.010712225
180	0x3c12ee86	0.008968001
181	0xbccb6402	-0.02482796
182	0xbb8dd333	-0.0043281554
183	0x3cbd9bd6	0.023145597
184	0x3d3b44be	0.045719855
185	0xbc51e884	-0.012811784
186	0x3ab8b722	0.0014092664
187	0xbc101e70	-0.008796319
188	0xbd11e9d8	-0.0356234
189	0x3d1885f6	0.03723713
190	0x3a33ef01	0.00068639225
191	0x3a769962	0.0009407011
192	0xbcacda2f	-0.021100132
193	0xbc8b4c39	-0.01700412
194	0xbd08b958	-0.033379883
195	0xbcd07da6	-0.025450539
196	0x3c728a4a	0.0148034785
197	0x3b8f374b	0.004370605
198	0x3d31cf6b	0.0434107
199	0xbc7dcad2	-0.015490251
200	0x3dd53cc1	0.104119785
201	0x3cd80dbf	0.026373742
202	0x3c60e9a2	0.013727577
203	0xbd24a78b	-0.040198844
204	0x3db11f8a	0.08648594
205	0xbc919636	-0.017771821
206	0xbd4a4b37	-0.049388137
207	0x3db0f360	0.0864017
208	0x3dd56b98	0.104209125
209	0x3e327aef	0.17429708
210	0xbc8c183e	-0.017101403
211	0x3d1a4fa1	0.037673596
212	0x3d37fb58	0.044917434
213	0x3cf6bce2	0.030119363
214	0x3d23bbec	0.03997414
215	0x3d03a624	0.032140866
216	0xbbbfa5f0	-0.0058486387
217	0x3d0e78d1	0.03478319
218	0x3d4cfa66	0.050043486
219	0xbe2e83c3	-0.1704245
220	0x3da705d6	0.0815541
221	0x3cb1a710	0.021686107
222	0xbd2c8510	-0.042119086
223	0xbde718ed	-0.11284051
224	0xbe66609c	-0.22497791
225	0x3cfac512	0.030611549
226	0x3b5f966b	0.0034116756
227	0xbd751489	-0.059834037
228	0xbc82b91c	-0.015957408
229	0xbd058eeb	-0.032607
230	0x3c1caacf	0.009562208
231	0x3dac6199	0.08417053
232	0x3dd43a28	0.10362655
233	0x3b7ef5cd	0.0038903833
234	0xbd9c3b1b	-0.07628461
235	0xbd8337b4	-0.06407109
236	0xbc8e3a35	-0.01736174
237	0xbd85ee9a	-0.0653965
238	0xbded2b67	-0.11580544
239	0xbdafb135	-0.085787214
240	0xbe0b6395	-0.13612206
241	0xbe0c2f28	-0.13689864
242	0xbdae597b	-0.08513161
243	0xbe10e64f	-0.14150356
244	0xbe242288	-0.16028798
245	0xbe176e1e	-0.147881
246	0xbd9089aa	-0.07057507
247	0x3cd8551d	0.026407773
248	0xbc20de47	-0.00981862
249	0xbb5023bc	-0.003175958
250	0xbcf19b5b	-0.029493025
251	0xbd24c19f	-0.040223714
252	0x3c7178ac	0.014738243
253	0x3c601408	0.013676651
254	0xbc5c6989	-0.013452896
255	0x3dc6e485	0.097115554

fc1.bias f4 [80]
0	0x3c0ef286	0.008724814
1	0xbdc92dd1	-0.09823192
2	0x3de396a9	0.111127205
3	0xbdd72288	-0.10504633
4	0x3e7ccda4	0.2468782
5	0x3d9e6063	0.07733228
6	0xbceffdbc	-0.029295795
7	0xbdbcbd3d	-0.09215782
8	0xbe05e238	-0.13074577
9	0xbc6a8885	-0.014314775
10	0x3c5361bb	0.012901719
11	0x3e524f27	0.20538007
12	0xbddfcf4d	-0.10928211
13	0x3d1c05a4	0.038091317
14	0xbdab814f	-0.08374273
15	0xbd648f5a	-0.055800773
16	0x3d99e6ef	0.0751475
17	0xbd14da50	-0.03634101
18	0xbe0b94c5	-0.1363097
19	0x3e14e811	0.14541651
20	0x3d3e0487	0.046391036
21	0xbe62625f	-0.22107838
22	0xbe1c4e12	-0.15264156
23	0x3d725e3b	0.059171896
24	0xbdd8e69f	-0.105908625
25	0x3db37b68	0.08763772
26	0xbe5b259c	-0.21401066
27	0x3e1eed8e	0.15520307
28	0xbd636295	-0.055513937
29	0x3de911fa	0.11380382
30	0x3bfc6b45	0.007703217
31	0x3d183bf2	0.037166543
32	0x3d37e99e	0.04490053
33	0xbc1c8285	-0.009552603
34	0x3c54ce08	0.012988575
35	0x3e0ee447	0.13954268
36	0x3d509b54	0.050929382
37	0x3dbc903f	0.092072
38	0xbc817459	-0.01580255
39	0x3d489d9e	0.04897844
40	0x3dfd191e	0.12358306
41	0x3d61db23	0.055140626
42	0x3d8957e0	0.06706214
43	0x3e2360c9	0.1595489
44	0x3cfcc325	0.03085477
45	0x3ccc6c8a	0.0249541
46	0xbde019f5	-0.10942451
47	0xbe10ff02	-0.14159778
48	0x3dd767f1	0.10517872
49	0x3e19d415	0.15022309
50	0x3d94809c	0.07251093
51	0xbdb9aee0	-0.09066558
52	0xbe2cc229	-0.16870941
53	0xbdd7164a	-0.10502298
54	0xbe0f2155	-0.13977559
55	0x3bcfdedf	0.006343707
56	0x3da39c94	0.07988849
57	0x3c0b36b1	0.008496926
58	0xbd1c4434	-0.03815098
59	0x3d4d0637	0.050054755
60	0xbd09faa6	-0.033686303
61	0x3e28f48f	0.16499542
62	0x3e3d0acf	0.18461154
63	0x3e1209c7	0.14261542
64	0x3ca929b1	0.020649763
65	0xbe1813d7	-0.14851318
66	0xbd449bcc	-0.048000142
67	0xbdc67ef6	-0.096921846
68	0xbbc425de	-0.0059859594
69	0xbdac15a7	-0.08402567
70	0xbaba8dfc	-0.0014232988
71	0x3de5750b	0.11203965
72	0x3e2bb509	0.16768278
73	0xbdcdf1d1	-0.100558884
74	0xbe3d5d2a	-0.1849257
75	0x3e06b1e4	0.13153797
76	0x3c30aeb7	0.010783843
77	0xbda53dff	-0.080684654
78	0x3e241cde	0.16026637
79	0xbc0df236	-0.008663705

fc2.weight f4 [10, 80]
0	0xbe145907	-0.14487086
1	0xbd981de3	-0.074275754
2	0xbc776d73	-0.015101778
3	0xbd8f207b	-0.06988617
4	0xbe01fe87	-0.1269475
5	0x3d8e81d1	0.06958354
6	0x3e1a6271	0.15076615
7	0xbd8fb15d	-0.07016251
8	0xbdc6ca19	-0.09706516
9	0xbd77265e	-0.060339324
10	0x3db8bb2f	0.090200774
11	0xbdcde163	-0.10052755
12	0xbdb18bb5	-0.08669225
13	0xbe6d1d69	-0.2315575
14	0x3db65d33	0.08904495
15	0xbe6a7d54	-0.22899371
16	0x3dc0b602	0.09409715
17	0x3dd2a8a1	0.1028607
18	0x3c87c6ea	0.016574342
19	0x3d0501cd	0.03247242
20	0xbd7fcc8e	-0.062450938
21	0xbdac4a24	-0.08412579
22	0x3dc3a232	0.09552421
23	0xbe3e7c34	-0.18602067
24	0xbdac2c7c	-0.08406922
25	0x3dc7addd	0.09749959
26	0xbe14258b	-0.14467447
27	0xbe2a8d2b	-0.16655414
28	0x3e47dbfb	0.1951751
29	0xbe2417c6	-0.16024694
30	0xbe2b4857	-0.16726814
31	0x3e045e1f	0.1292653
32	0xbd22f1da	-0.03978143
33	0xbd87cbaa	-0.06630643
34	0x3e611e21	0.2198415
35	0x3e200b40	0.15629292
36	0xbceba9e8	-0.028767541
37	0xbd5b23d4	-0.053500965
38	0xbd9ee6f3	-0.07758894
39	0x3d4cd960	0.050011992
40	0xbc822b96	-0.015889924
41	0x3ac6d149	0.0015168573
42	0xbe24b92d	-0.16086264
43	0xbe131f51	-0.14367415
44	0x3dc92945	0.09822325
45	0xbdf0dcbe	-0.11760853
46	0xbe5b5caa	-0.21422067
47	0xbdb01979	-0.085986085
48	0xbd35efd9	-0.04441819
49	0x3e18e605	0.14931495
50	0xbcfa3d88	-0.030546919
51	0x3e20304c	0.15643424
52	0xbcf44d23	-0.029821938
53	0xbe3f7c82	-0.1869984
54	0xbe4f7620	-0.20259905
55	0xbdbf487d	-0.09339998
56	0xbe09d063	-0.134584
57	0x3cc2fc37	0.023801906
58	0x3e051ebe	0.13000008
59	0x3e581827	0.21102963
60	0xbdb5e2e7	-0.08881169
61	0xbd864d0a	-0.06557663
62	0x3d0c3ab2	0.034235664
63	0xbd0eda73	-0.0348763
64	0xba3e3f15	-0.0007257325
65	0xbdc3e651	-0.09565414
66	0xbe4fc04e	-0.20288202
67	0xbe217f36	-0.15771183
68	0x3e058739	0.13039865
69	0x3e34cf93	0.17657308
70	0x3ddde4c2	0.10834648
71	0xbe144c58	-0.14482248
72	0x3d516b30	0.051127613
73	0x3dbbf505	0.09177593
74	0x3d7ad271	0.06123585
75	0x3e36dc64	0.1785751
76	0xbe58922e	-0.21149513
77	0x3ded1e4a	0.11578043
78	0xbe34ca00	-0.17655182
79	0x3df17b84	0.11791137
80	0x3d2ea946	0.0426419
81	0xbd8e6718	-0.06953257
82	0x3dee9e6a	0.11651309
83	0xbdba6be2	-0.09102608
84	0x3e858676	0.26079148
85	0x3d811af9	0.06303973
86	0xba8f8822	-0.0010950605
87	0xbdbd4ed7	-0.09243553
88	0xbe07ed1a	-0.13274041
89	0xbd55b96e	-0.052178793
90	0x3c1cf6cc	0.009580325
91	0x3e7091f1	0.23493172
92	0xbd973a9d	-0.073842265
93	0x3bacf9f4	0.00527882
94	0xbe09de1f	-0.13463639
95	0xbdec560b	-0.11539849
96	0x3dcb210a	0.09918411
97	0xbd576671	-0.05258793
98	0xbe12eb4f	-0.14347576
99	0x3dbe6092	0.09295763
100	0x3dc0bc4a	0.09410913
101	0xbe8879d5	-0.2665545
102	0xbdf45ace	-0.11931382
103	0x3dcec1ec	0.100955814
104	0xbe34e88c	-0.17666835
105	0xbc94d281	-0.018166782
106	0xbdcc662e	-0.09980427
107	0x3e2df721	0.16988803
108	0xbd079ccb	-0.033108514
109	0x3e1c1ef7	0.15246187
110	0xbc7a4006	-0.015274053
111	0x3d2cc1f6	0.042177163
112	0x3cac92cb	0.02106609
113	0xbd9cdc42	-0.07659198
114	0xbd705595	-0.058675367
115	0x3e0fa991	0.14029528
116	0x3dc00327	0.09375601
117	0x3d70d556	0.058797203
118	0xbd305e19	-0.04305849
119	0xbc93f148	-0.018059388
120	0x3d94588c	0.072434515
121	0x3cebf7c0	0.02880466
122	0x3ddcaba9	0.10774929
123	0x3e0bca77	0.13651453
124	0x3d5d037c	0.0539584
125	0xbc2d5b2e	-0.010580821
126	0xbe15427d	-0.14576145
127	0xbe305ced	-0.17222948
128	0x3d9dcc47	0.077049784
129	0x3db54e53	0.0885283
130	0x3cab1178	0.020882353
131	0x3d31e395	0.04342993
132	0xbe082528	-0.13295424
133	0xbdb2e152	-0.08734383
134	0xbe2ab511	-0.16670634
135	0x3d32fdbe	0.04369902
136	0x3e0e3196	0.13886103
137	0x3d5f6240	0.054537058
138	0xbd3d8bde	-0.046275966
139	0x3e0d0993	0.13773184
140	0x3cdca3eb	0.02693363
141	0x3d92239e	0.071357
142	0x3e1f5193	0.15558462
143	0x3dd6de8f	0.104916684
144	0x3cba3cc4	0.022734053
145	0xbe1457e1	-0.14486648
146	0xbe048f6b	-0.12945335
147	0xbe107eeb	-0.14110915
148	0xbdcb3659	-0.09922475
149	0xbe34a42c	-0.17640752
150	0x3d8ef993	0.06981196
151	0x3daa0b5e	0.08302949
152	0x3d82d7cd	0.06388817
153	0xbdaf7ef8	-0.08569139
154	0xbe2018f8	-0.15634525
155	0x3de10509	0.109872885
156	0x3cf98191	0.03045729
157	0xbe2a2472	-0.16615465
158	0x3e72a89b	0.2369713
159	0xbcb07c69	-0.021543698
160	0xbd919aaf	-0.07109582
161	0x3bc9c1da	0.006157142
162	0xbd81e99a	-0.06343384
163	0xbe0fc0f8	-0.14038455
164	0xbc56b926	-0.013105666
165	0x3e0855a8	0.13313925
166	0xbe70bbb6	-0.23509106
167	0xbde97304	-0.113988906
168	0x3db6d1c9	0.08926732
169	0x3dc3dfc7	0.095641665
170	0xbcb06748	-0.021533623
171	0x3db4638e	0.08808051
172	0xbd10aa5e	-0.035318725
173	0xbca4a2f1	-0.020097228
174	0xbe911c76	-0.28342026
175	0xbd0043db	-0.031314712
176	0x3cef5fb7	0.029220445
177	0x3cd426dd	0.025897438
178	0xbca05343	-0.019570952
179	0x3e397f46	0.18114957
180	0xbe176331	-0.14783932
181	0x3d72aeaa	0.059248604
182	0x3cd30130	0.025757402
183	0x3e188677	0.14895044
184	0x3c993e8d	0.018706584
185	0x3dc4a03e	0.09600876
186	0xbdd771ea	-0.10519774
187	0x3e08ac15	0.13346894
188	0x3c1a8b6f	0.009432658
189	0x3daa0321	0.08301378
190	0xbd801edd	-0.06255887
191	0x3bb97ab6	0.0056603802
192	0xbd917b1e	-0.07103561
193	0xbe49b96e	-0.19699642
194	0x3cc4b737	0.024013145
195	0x3cb92a62	0.022603218
196	0xbd2c4cdf	-0.042065497
197	0xbe1f6645	-0.15566356
198	0xbd1764e8	-0.036961466
199	0x3c91b565	0.017786691
200	0x3e80218a	0.25025588
201	0x3d83ff59	0.06445188
202	0x3d9fbaeb	0.07799324
203	0x3db19ad6	0.08672111
204	0x3e070e04	0.1318894
205	0xbe0ff37a	-0.14057723
206	0x3e205924	0.15659004
207	0x3e0cd2fa	0.13752356
208	0xbddc8020	-0.107666254
209	0x3dffc7ee	0.124893054
210	0x3e8190d7	0.25305817
211	0xbe4c28b3	-0.199374
212	0x3d84e653	0.06489243
213	0xbe367791	-0.17819048
214	0x3e39532c	0.18098134
215	0xbc15c329	-0.009140768
216	0x3db75c12	0.08953108
217	0xbdd00257	-0.10156696
218	0xbe4bb51a	-0.19893304
219	0x3cf39394	0.029733457
220	0x3e2c7443	0.16841225
221	0xbe6a2699	-0.22866286
222	0xbdc6b1ee	-0.09701906
223	0xbb7e2c97	-0.0038783902
224	0x3e14cbad	0.14530821
225	0x3dda9066	0.10672073
226	0xbe3c796d	-0.18405695
227	0x3e35b221	0.17743732
228	0xbe243ebc	-0.16039556
229	0x3dbb566f	0.09147345
230	0x3e951305	0.29116073
231	0xbe94f7ca	-0.29095298
232	0xbd9fc14d	-0.07800541
233	0xbe20c550	-0.15700269
234	0xbd9ed654	-0.077557236
235	0x3d9a1474	0.075234324
236	0x3e0e07f9	0.13870229
237	0x3da24a97	0.07924383
238	0xbd80152e	-0.0625404
239	0x3dad8a2a	0.08473618
240	0xbb0d5416	-0.0021565012
241	0x3d9ea05a	0.077454284
242	0x3ceef695	0.029170314
243	0x3c71ab9f	0.01475039
244	0x3c9c4382	0.019075159
245	0xbd0599c3	-0.03261734
246	0xbd8c70a1	-0.0685742
247	0xbdbd3d5e	-0.092402205
248	0x3dd7b2bd	0.105321385
249	0xbdaa124e	-0.083042726
250	0x3cf93c67	0.03042431
251	0xbe0b0572	-0.13576296
252	0xbdd8c2d6	-0.10584037
253	0xbd0706b5	-0.03296538
254	0xbd238650	-0.039923012
255	0x3da9ddf1	0.08294285

fc2.bias f4 [10]
0	0x3de0c581	0.10975171
1	0x3e9fb672	0.31193882
2	0x3d0df402	0.034656532
3	0xbde0ee0f	-0.10982906
4	0xbd384cb9	-0.044995043
5	0xbd46ff27	-0.048583176
6	0xbd435d9b	-0.04769669
7	0xbd14b895	-0.036308844
8	0x3dc9c6c2	0.09852363
9	0xbd8f11df	-0.069858305
